…
    validation_history[&amp;#39;accuracy&amp;#39;].append(accuracy)
    validation_history[&amp;#39;loss&amp;#39;].append(loss)
    print(&amp;quot;Validation Results - Epoch: {}  Avg accuracy: {:.2f} Avg MSE loss: {:.2f} &amp;quot;
          .format(trainer.state.epoch, accuracy, loss))

trainer.add_event_handler(Events.EPOCH_COMPLETED, log_validation_results) 
&lt;/code&gt;&lt;/pre&gt;

&lt;p&gt;And my model looks like this&lt;/p&gt;

&lt;h1&gt;----------------------------------------------------------------Layer (type)               Output Shape         Param&lt;/h1&gt;

&lt;p&gt;Conv2d-1           [64, 64, 28, 28]             576&lt;/p&gt;

&lt;p&gt;ReLU-2           [64, 64, 28, 28]               0&lt;/p&gt;

&lt;p&gt;MaxPool2d-3           [64, 64, 14, 14]               0&lt;/p&gt;

&lt;p&gt;Linear-4                 [64, 6000]      75,270,000&lt;/p&gt;

&lt;p&gt;Linear-5                 [64, 1200]       7,201,200&lt;/p&gt;

&lt;p&gt;Linear-6                  [64, 120]         144,120&lt;/p&gt;

&lt;p&gt;Linear-7                   [64, 10]           1,210&lt;/p&gt;

&lt;p&gt;&amp;#x200B;&lt;/p&gt;

&lt;p&gt;But i get this error&lt;/p&gt;

&lt;p&gt;&amp;#x200B;&lt;/p&gt;

&lt;pre&gt;&lt;code&gt;RuntimeError: The size of tensor a (10) must match the size of tensor b (64) at non-singleton dimension 1
&lt;/code&gt;&lt;/pre&gt;

&lt;p&gt;And I have no idea how to fix it. My main goal is to find the MSError after each batch, and this works if my criterion is NLLLoss but not with MSE. I&amp;#39;m not sure if its a pytorch or an ignite issue. Any help would be greatly appreciated!&lt;/p&gt;
…
