…
    model.add(Dense(NUM_CLASSES, activation='sigmoid', name='dense_classification')) # Output layer that does classification
    
    model.compile('sgd', 'binary_crossentropy', metrics=['accuracy'])

Next, I try to check if the model declaration is correct. I do this with model.summary():

    model.summary()
    
    
    Output:
    Model: ""sequential""
    _________________________________________________________________
    Layer (type)                 Output Shape              Param #   
    =================================================================
    flatten1 (Flatten)           (32, 15574)               0         
    _________________________________________________________________
    dense1 (Dense)               (32, 2048)                31897600  
    _________________________________________________________________
    dense2 (Dense)               (32, 512)                 1049088   
    _________________________________________________________________
    dense3 (Dense)               (32, 128)                 65664     
    _________________________________________________________________
    dense_classification (Dense) (32, 2)                   258       
    =================================================================
    Total params: 33,012,610
    Trainable params: 33,012,610
    Non-trainable params: 0

In my eyes, this seems to be correct.

The final step is to train the model. This part also contains the full error message that is thrown:

    # Definition of callbacks
    reduce_lr = ReduceLROnPlateau(monitor='val_loss', factor=0.5, patience=5, min_lr=0, mode='auto', verbose=1)
…
314,,tensorflow,"I've built my first model and I've not very experienced so I'm unsure if it's structured correctly.

I have the VGG16 model on top (frozen) and I connect this to a dene layer that I train on categorical data (6 classes)

    _________________________________________________________________
    Model: ""model""
    _________________________________________________________________
    Layer (type)                 Output Shape              Param #
    =================================================================
    input_1 (InputLayer)         [(None, 150, 150, 3)]     0
    _________________________________________________________________
    block1_conv1 (Conv2D)        (None, 150, 150, 64)      1792
    _________________________________________________________________
    block1_conv2 (Conv2D)        (None, 150, 150, 64)      36928
    _________________________________________________________________
    block1_pool (MaxPooling2D)   (None, 75, 75, 64)        0
    _________________________________________________________________
    block2_conv1 (Conv2D)        (None, 75, 75, 128)       73856
    _________________________________________________________________
    block2_conv2 (Conv2D)        (None, 75, 75, 128)       147584
    _________________________________________________________________
    block2_pool (MaxPooling2D)   (None, 37, 37, 128)       0
    _________________________________________________________________
    block3_conv1 (Conv2D)        (None, 37, 37, 256)       295168
    _________________________________________________________________
    block3_conv2 (Conv2D)        (None, 37, 37, 256)       590080
    _________________________________________________________________
    block3_conv3 (Conv2D)        (None, 37, 37, 256)       590080
    _________________________________________________________________
    block3_pool (MaxPooling2D)   (None, 18, 18, 256)       0
    _________________________________________________________________
    block4_conv1 (Conv2D)        (None, 18, 18, 512)       1180160
    _________________________________________________________________
    block4_conv2 (Conv2D)        (None, 18, 18, 512)       2359808
    _________________________________________________________________
    block4_conv3 (Conv2D)        (None, 18, 18, 512)       2359808
    _________________________________________________________________
    block4_pool (MaxPooling2D)   (None, 9, 9, 512)         0
    _________________________________________________________________
    block5_conv1 (Conv2D)        (None, 9, 9, 512)         2359808
    _________________________________________________________________
    block5_conv2 (Conv2D)        (None, 9, 9, 512)         2359808
    _________________________________________________________________
    block5_conv3 (Conv2D)        (None, 9, 9, 512)         2359808
    _________________________________________________________________
    block5_pool (MaxPooling2D)   (None, 4, 4, 512)         0
    _________________________________________________________________
    flatten (Flatten)            (None, 8192)              0
    _________________________________________________________________
    dense (Dense)                (None, 128)               1048704
    _________________________________________________________________
    dense_1 (Dense)              (None, 6)                 774
    =================================================================
    Total params: 15,764,166
    Trainable params: 1,049,478
    Non-trainable params: 14,714,688
    _________________________________________________________________

I want to apply what the model has learnt thus far to a binary classification problem. So, once trained on my categorical data, I freeze \`dense\` and remove \`dense\_1\`, then I add in \`dense\_2\`, \`dense\_3\`, \`dense\_4\` (the latter having 1 output).

    continued from before....
    block5_pool (MaxPooling2D)   (None, 4, 4, 512)         0
    _________________________________________________________________
    flatten (Flatten)            (None, 8192)              0
    _________________________________________________________________
    dense (Dense)                (None, 128)               1048704
    _________________________________________________________________
    dense_2 (Dense)              (None, 128)               16512
    _________________________________________________________________
    dense_3 (Dense)              (None, 128)               16512
    _________________________________________________________________
    dense_4 (Dense)              (None, 1)                 129
    =================================================================
    Total params: 15,796,545
    Trainable params: 33,153
    Non-trainable params: 15,763,392

Then I train it on my binary data (I have setup augmentation and preprocessing, etc.)

Does this network make sense though? I don't have the deep understanding many people here do, so not really sure. Any input would be appreciated."
…
            layers.Conv2D(128, (3, 3), activation='relu', input_shape=(img_height_ideal, img_width_ideal, 3)),
            layers.MaxPooling2D(2, 2),
            layers.Flatten(),
            layers.Dense(64, activation='relu'),
            layers.Dense(CLASSES, activation='softmax'),
        ])

It looks correct from the summary:

    Model: ""sequential_1""
    _________________________________________________________________
    Layer (type)                 Output Shape              Param #
    =================================================================
    sequential (Sequential)      (None, 150, 150, 3)       0
    _________________________________________________________________
    rescaling (Rescaling)        (None, 150, 150, 3)       0
    _________________________________________________________________
    conv2d (Conv2D)              (None, 148, 148, 128)     3584
    _________________________________________________________________
    max_pooling2d (MaxPooling2D) (None, 74, 74, 128)       0
    _________________________________________________________________
    flatten (Flatten)            (None, 700928)            0
    _________________________________________________________________
    dense (Dense)                (None, 64)                44859456
    _________________________________________________________________
    dense_1 (Dense)              (None, 2)                 130
    =================================================================
    Total params: 44,863,170
    Trainable params: 44,863,170
    Non-trainable params: 0
    
    _________________________________________________________________
    
    Model: ""sequential_2""
    _________________________________________________________________
    Layer (type)                 Output Shape              Param #
    =================================================================
    sequential (Sequential)      (None, 150, 150, 3)       0
    _________________________________________________________________
    rescaling_1 (Rescaling)      (None, 150, 150, 3)       0
    _________________________________________________________________
    rescaling (Rescaling)        (None, 150, 150, 3)       0
    _________________________________________________________________
    conv2d (Conv2D)              (None, 148, 148, 128)     3584
    _________________________________________________________________
    max_pooling2d (MaxPooling2D) (None, 74, 74, 128)       0
    _________________________________________________________________
    conv2d_1 (Conv2D)            (None, 72, 72, 128)       147584
    _________________________________________________________________
    max_pooling2d_1 (MaxPooling2 (None, 36, 36, 128)       0
    _________________________________________________________________
    flatten_1 (Flatten)          (None, 165888)            0
    _________________________________________________________________
    dense_2 (Dense)              (None, 64)                10616896
    _________________________________________________________________
    dense_3 (Dense)              (None, 2)                 130
    =================================================================
    Total params: 10,768,194
    Trainable params: 10,764,610
    Non-trainable params: 3,584

&amp;#x200B;",t2_621he0r0,False,,0,False,I have a trained model. How do I use it for (transfer learning ) training another model?,[],r/tensorflow,False,6,,0,,,False,t3_kl3niv,False,dark,1.0,,public,4,0,{},,,False,[],,False,False,,{},,
…
The neural net produces an output vector of size 22, which uses an epsilon greedy policy to choose the best Q value (and therefore the best action).

I originally used a series of dense layers -- an input layer, 3 hidden layers, and an output layer. However, [after watching a few videos](https://www.youtube.com/watch?v=Tnu4O_xEmVk) I noticed that a lot of Q learning stuff used LSTM cells, so I built this network:

    Model: ""sequential""
    _________________________________________________________________
    Layer (type)                 Output Shape              Param #
    =================================================================
    Input_LSTM (LSTM)            (None, 5, 1024)           10215424
    _________________________________________________________________
    Hidden_Layer_1 (Dense)       (None, 5, 512)            524800
    _________________________________________________________________
    leaky_re_lu (LeakyReLU)      (None, 5, 512)            0
    _________________________________________________________________
    Hidden_Drop_1 (Dropout)      (None, 5, 512)            0
    _________________________________________________________________
    Hidden_LSTM_1 (LSTM)         (None, 5, 256)            787456
    _________________________________________________________________
    Hidden_Layer_2 (Dense)       (None, 5, 128)            32896
    _________________________________________________________________
    leaky_re_lu_1 (LeakyReLU)    (None, 5, 128)            0
    _________________________________________________________________
    Hidden_Drop_2 (Dropout)      (None, 5, 128)            0
    _________________________________________________________________
    Hidden_LSTM_2 (LSTM)         (None, 64)                49408     
    _________________________________________________________________
    Inner_Output (Dense)         (None, 22)                1430
    _________________________________________________________________
    Model_Output (Dense)         (None, 22)                506
    =================================================================
    Total params: 11,611,920
    Trainable params: 11,611,920
    Non-trainable params: 0
    _________________________________________________________________

(The reason behind the 2 final layers being the same size is because the `DQNAgent` provided by `keras.rl` has a ""dueling network"" setting which pits the results of the last 2 layers against each other.)
…
        model.add(Dropout(0.2))
        model.add(Dense(num_classes, activation='softmax'))
    
        model.summary()

Which yields:

    INFO:tensorflow:Using MirroredStrategy with devices ('/job:localhost/replica:0/task:0/device:GPU:0', '/job:localhost/replica:0/task:0/device:GPU:1')
    Number of devices: 2
    60000 train samples
    10000 test samples
    Model: ""sequential""
    _________________________________________________________________
    Layer (type)                 Output Shape              Param #   
    =================================================================
    dense (Dense)                (None, 512)               401920    
    _________________________________________________________________
    dropout (Dropout)            (None, 512)               0         
    _________________________________________________________________
    dense_1 (Dense)              (None, 512)               262656    
    _________________________________________________________________
    dropout_1 (Dropout)          (None, 512)               0         
    _________________________________________________________________
    dense_2 (Dense)              (None, 10)                5130      
    =================================================================
    Total params: 669,706
    Trainable params: 669,706
    Non-trainable params: 0

And then:

    model.compile(loss='categorical_crossentropy',
                  optimizer=RMSprop(),
                  metrics=['accuracy'])
    history = model.fit(x_train, y_train,
                        batch_size=batch_size,
                        epochs=epochs,
…
217,1600185736.0,0,,False,,,,,,,,,
825,,tensorflow,"I'm new to semantic segmentation and am really struggling to wrap my head around how to construct my model so that the logits and labels are the same. And then so that the loss function is the correct loss function.

I'm using Keras 

    Layer (type)                 Output Shape              Param #   
    =================================================================
    input_6 (InputLayer)         [(None, 256, 256, 3)]     0         
    _________________________________________________________________
    block1_conv1 (Conv2D)        (None, 256, 256, 64)      1792      
    _________________________________________________________________
    block1_conv2 (Conv2D)        (None, 256, 256, 64)      36928     
    _________________________________________________________________
    max_pooling2d_20 (MaxPooling (None, 128, 128, 64)      0         
    ..........................................................................................................
    up_sampling2d_11 (UpSampling (None, 256, 256, 512)     0         
    _________________________________________________________________
    block7_conv1 (Conv2D)        (None, 256, 256, 123)     566907    
    _________________________________________________________________
    softmax_4 (Softmax)          (None, 256, 256, 123)     0       


That's my current setup. RGB input and then 123 classes output.

My masks are also in RGB so that could be an issue because I think they should be one-hot, but the tutorials that I've been able to follow don't mention converting the masks or its over my head what they are saying. 

I'm using 'sparse categorical crossentropy' as I haven't been able to get any custom loss function to work. I get weird errors. 
…
